artifacts/model.pth (torch, 3593 bytes, 4 tensors)

fc1.weight f4 [12, 23]
-0.087084316 0.13021643 -0.18805802 -0.21573344 -0.13427961 0.14507894 0.038929097 0.084772915
0.2528584 0.19236273 0.08330371 0.037872676 -0.20981303 -0.15238534 0.087335765 0.030770473
-0.011289432 -0.19041206 -0.17344336 -0.1418497 -0.2205291 -0.22067605 -0.18663566 0.044916544
-0.5212008 -0.60046816 -0.2726025 -0.7125382 -1.6569208 -1.1570196 -0.9695342 -0.66310406
-0.52033716 -0.1948521 -0.04240084 0.007067944 -0.01112409 -0.11701892 -0.20558904 -0.119725026
-0.13855511 -0.2016278 0.10418943 0.09567672 0.13292654 0.14788805 -0.0019732784 -0.077273294
-0.17592412 0.14708167 0.14571413 0.43780354 0.64524305 0.26482233 0.36378738 0.30305606
0.34119388 -0.033797286 -0.15356323 -0.047333125 -0.26791012 -0.0056150807 0.07737763 -0.0037149556
0.028191924 -0.16670677 -0.08278077 -0.017191174 -0.03145249 0.050159346 0.3298501 0.3010079
0.4040603 0.42578667 1.6234151 0.9193108 0.79310465 0.67193377 0.56102175 0.5166892
0.051897176 -0.0398527 -0.10623335 -0.112405844 -0.1655072 -0.12182008 -0.06753106 -0.07867853
0.009527875 0.00502979 0.076243564 0.0998028 -0.10658132 -0.010405106 -0.2806197 0.056123983
-0.31546983 -0.09402235 0.15553941 -0.065061614 -0.06607164 0.072882324 -0.10908224 -0.017436486
0.010210615 -0.2651138 -0.21088536 0.07711073 0.10685373 0.07786818 0.11371879 -0.10129535
-0.17779271 -0.05834175 0.07136708 0.10192231 -0.4780762 -0.28014505 -0.28160796 -0.35105982
-1.9207892 -1.1762662 -1.0730189 -0.6446515 -0.33470443 -0.42221308 0.033944454 0.048285116
-0.21618855 -0.2839053 -0.25390884 -0.21034978 -0.1411496 -0.12342503 0.07886601 -0.03786108
0.08320757 0.18746337 0.053117234 0.24298894 0.11885416 0.32930955 0.40787154 1.6522105
1.1445351 0.73756915 0.7984434 0.32830134 0.5355979 -0.010848112 0.050128043 -0.09631116
-0.16467078 -0.1382392 -0.09235129 -0.1100038 -0.08276 0.06986793 -0.01572946 0.02264719
0.109902516 -0.07194163 -0.29263324 -0.0970961 -0.34169024 -0.058362205 -0.17149718 0.07963063
-0.110210925 -0.10483166 0.20866232 0.040263627 -0.09181426 0.14616708 -0.011854374 -0.16963044
-0.10640196 0.026118603 0.027296947 -0.08056487 -0.15746528 -0.16338672 -0.06845997 0.12115347
0.025641048 -0.23575217 -0.31594175 -0.18453865 -0.20260337 -1.1718533 -0.90258294 -0.51511836
-0.36041468 -0.22395198 -0.2464763 0.14681965 -0.15350112 -0.08424471 -0.071311936 -0.21800889
0.022845836 0.0055345134 -0.05719438 -0.03560356 0.04264774 -0.007544932 0.09966483 -0.07731372
0.06793336 -0.21902877 -0.24709526 -0.019561842 -0.14922416 -0.086838186 0.13885812 0.015522821
0.08297477 0.10284998 0.078656964 0.009938043 -0.0892946 -0.21504828 0.08150167 -0.07709051
-0.21281447 -0.22774047 0.06963138 -0.110552326 0.104843155 0.045373373 -0.007702477 -0.25679988
-0.3718658 -0.10217873 -0.44822833 -0.5893434 -0.38143688 -0.47315145 -0.30835834 -0.22087213
-0.058977652 -0.027411522 0.0044830483 0.09968416 -0.2940994 -0.093627766 -0.21245791 -0.16279261
0.13060352 0.08495969 0.10170974 -0.06450165 -0.103109814 -0.036257777 0.1916619 0.18457322
00000000: 4359 b2bd 7557 053e 4892 40be 3ae9 5cbe
00000010: 9880 09be 938f 143e 1e74 1f3d 6c9d ad3d
00000020: a876 813e bcfa 443e 239b aa3d 6120 1b3d
00000030: 3ad9 56be e70a 1cbe 18dd b23d 5c12 fc3c
00000040: 4ff7 38bc 61fb 42be 239b 31be 0c41 11be
00000050: 61d2 61be e7f8 61be 6b1d 3fbe 69fa 373d
00000060: 6a6d 05bf 48b8 19bf 8e92 8bbe e768 36bf
00000070: fb15 d4bf 3819 94bf 6533 78bf 30c1 29bf
00000080: d134 05bf 4f87 47be 81ac 2dbd 369a e73b
00000090: d141 36bc 9ea7 efbd ef85 52be 6532 f5bd
000000a0: 64e1 0dbe 8577 4ebe 4561 d53d 28f2 c33d
000000b0: e51d 083e f76f 173e 1e52 01bb 7641 9ebd
000000c0: 7425 34be 949c 163e 1636 153e c927 e03e
000000d0: a62e 253f cb96 873e 5742 ba3e 2a2a 9b3e
000000e0: f7b0 ae3e 066f 0abd ae3f 1dbe 61e0 41bd
000000f0: 842b 89be b6fe b7bb 2a78 9e3d 9d76 73bb
00000100: c0f2 e63c 2eb5 2abe f788 a9bd 81d4 8cbc
00000110: 53d4 00bd e373 4d3d 1de2 a83e b51d 9a3e
00000120: fee0 ce3e b600 da3e 11cc cf3f f457 6b3f
00000130: e808 4b3f da03 2c3f 1f9f 0f3f be45 043f
00000140: 2292 543d 963c 23bd df90 d9bd 0935 e6bd
00000150: b87a 29be ce7c f9bd b94d 8abd 3622 a1bd
00000160: ce1a 1c3c f0d0 a43b 9625 9c3d 6965 cc3d
00000170: 4f47 dabd 2d7a 2abc 63ad 8fbe 43e2 653d
00000180: 4385 a1be ca8e c0bd b945 1f3e 063f 85bd
00000190: 9150 87bd 5443 953d 8266 dfbd f6d6 8ebc
000001a0: 6c4a 273c ffbc 87be 55f2 57be 3bec 9d3d
000001b0: 21d6 da3d 5a79 9f3d 66e5 e83d f073 cfbd
000001c0: 4b0f 36be c2f7 6ebd e728 923d a5bc d03d
000001d0: 67c6 f4be 2c6f 8fbe eb2e 90be 1dbe b3be
000001e0: 6cdc f5bf e48f 96bf af58 89bf e107 25bf
000001f0: 615e abbe 502c d8be 5709 0b3d 9dc6 453d
00000200: 8860 5dbe 095c 91be 5700 82be ef65 57be
00000210: 8589 10be 43c6 fcbd 8184 a13d 3814 1bbd
00000220: bb68 aa3d 66f6 3f3e 7591 593d 18d2 783e
00000230: cf69 f33d 439b a83e 8ad4 d03e a27b d33f
00000240: 2080 923f 55d1 3c3f c966 4c3f 1d17 a83e
00000250: f21c 093f 48bc 31bc 1053 4d3d c93e c5bd
00000260: 759f 28be 948e 0dbe ac22 bdbd ac49 e1bd
00000270: 137e a9bd eb16 8f3d 12db 80bc 9a86 b93c
00000280: 9214 e13d 2256 93bd 06d4 95be 52da c6bd
00000290: 06f2 aebe 350d 6fbd f59c 2fbe 6215 a33d
000002a0: 44b6 e1bd fbb1 d6bd 93ab 553e 79eb 243d
000002b0: 1d09 bcbd d3ac 153e d938 42bc 9ab3 2dbe
000002c0: 45e9 d9bd aef6 d53c d99d df3c 32ff a4bd
000002d0: 943e 21be d94e 27be be34 8cbd 4f1f f83d
000002e0: 2d0d d23c 0469 71be 1ec3 a1be b3f7 3cbe
000002f0: 4277 4fbe 4aff 95bf ad0f 67bf ccde 03bf
00000300: 4688 b8be ab53 65be 4864 7cbe e457 163e
00000310: 662f 1dbe 7e88 acbd fe0b 92bd b93d 5fbe
00000320: 3127 bb3c dd5a b53b a744 6abd 0ad5 11bd
00000330: 66af 2e3d 7a3b f7bb 131d cc3d a856 9ebd
00000340: a520 8b3d 1449 60be 8a06 7dbe 2840 a0bc
00000350: 38ce 18be 38d8 b1bd d330 0e3e 6e53 7e3c
00000360: adee a93d 03a3 d23d e716 a13d 2cd3 223c
00000370: 16e0 b6bd 9e35 5cbe 59ea a63d a1e1 9dbd
00000380: 09ec 59be cc34 69be e69a 8e3d 4269 e2bd
00000390: 02b8 d63d 6ed9 393d 0f65 fcbb 467b 83be
000003a0: 3265 bebe 1543 d1bd 2f7e e5be 36df 16bf
000003b0: b24b c3be e840 f2be 25e1 9dbe 4e2c 62be
000003c0: 8d92 71bd 218e e0bc 89e6 923b 3527 cc3d
000003d0: 3294 96be eabf bfbd 918e 59be 1bb3 26be
000003e0: eebc 053e 59ff ad3d 324d d03d 7119 84bd
000003f0: 3d2b d3bd 0983 14bd 0443 443e c300 3d3e

fc1.bias f4 [12]
-0.025705 -0.50752246 -0.14000313 0.53940564 -0.015423321 -0.32904118 0.22648312 -0.17572328
-0.19224687 0.08058124 -0.22376265 0.26368046
00000000: 4b93 d2bc feec 01bf fb5c 0fbe 7d16 0a3f
00000010: 19b2 7cbc 1678 a8be 31eb 673e cef0 33be
00000020: 5ddc 44be c707 a53d 0922 65be 2001 873e

fc2.weight f4 [2, 12]
-0.09928742 -0.09062595 -0.014629649 -0.1408094 0.020633189 0.17737085 -0.07641733 -0.13866098
0.029315308 0.15409583 0.206563 0.09824176 0.046782292 -0.13321361 -0.018832017 0.005466746
0.068770945 0.04767997 0.07869264 -0.16003801 0.0075443652 0.15783197 0.20658103 0.104990035
00000000: 3457 cbbd 199a b9bd 32b1 6fbc 5730 10be
00000010: ef06 a93c b4a0 353e b080 9cbd 25fd 0dbe
00000020: a826 f03c 4ccb 1d3e 4085 533e fa32 c93d
00000030: ca9e 3f3d 2669 08be 9a45 9abc 6422 b33b
00000040: c8d7 8c3d 124c 433d 9b29 a13d 01e1 23be
00000050: b936 f73b b49e 213e fa89 533e 0405 d73d

fc2.bias f4 [2]
0.4576057 -0.56088954
00000000: 4b4b ea3e 7596 0fbf
